classify.pt (torch, 293255 bytes, 10 tensors)

conv1.weight f4 [8, 3, 3, 3]
000000 19 c0 54 3e d1 57 be 3c f3 a7 82 3d c3 ab 3d 3e
       0.20776404 0.023235234 0.0637969 0.18522553
000010 8a 5f ab bd 00 15 5c 3e 08 70 67 3d 3b bd 49 3e
       -0.08367832 0.21492386 0.056503326 0.19701092
000020 d5 68 03 3e 26 38 32 bd 08 39 bb 3c b7 bf fb bc
       0.12832959 -0.04351058 0.022854343 -0.030731065
000030 0e 13 05 3d 6f ac f5 bd 7f cc 6a bd 1e 95 4e bd
       0.032488875 -0.1199578 -0.05732393 -0.050435178
000040 5c dd 02 bc f8 e1 04 bd 8c 6a 03 3e 90 c1 24 3c
       -0.0079873465 -0.032442063 0.12833613 0.0100559145
000050 07 24 03 be 72 5d 32 be 6c 1c c6 bd 67 2f 12 be
       -0.12806712 -0.17418459 -0.0967339 -0.14275895
000060 ee 16 ef bd 2b 72 49 bd dc 3e 80 3d b1 bb 90 3e
       -0.11674295 -0.049181145 0.062619895 0.28268197
000070 d2 a9 59 bd 79 42 63 3e c1 05 6c 3e 5d 91 a2 3e
       -0.05314047 0.22193326 0.2304907 0.31751528
000080 5d a7 71 3e 06 75 b9 3c d5 2a da bc cc 15 1a 3d
       0.23599 0.022638809 -0.026631752 0.037618443
000090 03 e7 8e 3e 27 f6 06 3d 8d 22 d5 3d 3a 71 ac 3c
       0.27910623 0.032949593 0.10406981 0.021050084
0000a0 7c 99 80 3e eb a7 69 bd b0 0b 8c 3e f7 75 ab 3d
       0.251171 -0.057044905 0.27352667 0.083721094
0000b0 fa 61 72 bd 01 0a ef 3d b1 a0 f0 bd ec 49 20 3c
       -0.05917547 0.1167183 -0.117493995 0.009783249
0000c0 16 92 16 bd 32 7c 10 bd 6d eb 64 be f8 23 74 bd
       -0.036760412 -0.035274692 -0.22355433 -0.059604615
0000d0 0e a4 de 3d de b6 88 bd 6d 68 75 3e 1d 9d 62 3e
       0.10871135 -0.06675504 0.23965617 0.22130246
0000e0 e9 57 d4 3d 98 7f b8 bd bf c3 2c 3e af 85 26 3e
       0.1036833 -0.090087116 0.16871546 0.16261934
0000f0 98 92 aa bd c2 48 3a 3e 07 fe 62 3e 8e d7 25 3e
       -0.08328742 0.18191817 0.22167216 0.16195509
000100 54 26 ce bd a1 64 19 3c 28 be ba bc 5d 5d ba 3c
       -0.10065904 0.009362371 -0.022795752 0.022749597
000110 9d 77 eb bd cb 88 1e be 1b a1 d1 3d 24 1f 61 bc
       -0.11497424 -0.1548187 0.102358066 -0.013740335
000120 56 e6 2a 3d f0 e4 d9 bc c9 f2 41 3d 80 7a 95 bc
       0.04172357 -0.026598424 0.04735068 -0.01824689
000130 fd 08 ba 3c 17 0a 9a 3d 9a 7e 74 be 7c bc 62 3d
       0.022709364 0.07521456 -0.2387642 0.055355534
000140 ff 42 1b be 20 29 48 be 6d 3b a8 bd fb 60 12 be
       -0.15162276 -0.19546938 -0.082144596 -0.14294808
000150 1c 3e 84 3d 86 66 51 be 3c 2a 8e be 64 d7 c6 3d
       0.06457159 -0.20449266 -0.27766597 0.09709051
000160 cf 01 e3 bd f6 83 e7 3b 91 b5 9e 3d 0b f1 1e be
       -0.11084329 0.0070652915 0.07749475 -0.15521638
000170 b9 d8 a4 3c 1e da 69 3d b5 b8 13 be f3 7a ea bd
       0.020122873 0.05709278 -0.14425929 -0.11449232
000180 a0 b6 9d 3d d7 54 ad 3c a9 43 d9 bd 70 6d 0b 3d
       0.077008486 0.021158619 -0.10608608 0.034039915
000190 7a 56 82 3e fa c1 21 3d 5a bb 43 3e 21 d5 1d 3e
       0.254566 0.03949163 0.19114438 0.15413333
0001a0 5a 09 38 bd 80 af a2 bd 3f 0f 84 3e 76 99 b4 3d
       -0.044930793 -0.0794363 0.25792882 0.08818333
0001b0 37 fa 88 3e 43 df 2a 3e af 0f 49 3e 40 5d 96 3e
       0.267534 0.1668673 0.19634889 0.2936802
0001c0 cb 54 95 3e 99 98 e7 bb 28 fe 3e 3e ff 30 8a 3e
       0.29166254 -0.0070677516 0.1865164 0.26990506
0001d0 88 b4 8b 3e 4a ab 3a 3e ea 21 b5 bd de 97 95 bd
       0.27286172 0.18229404 -0.08844359 -0.07304357
0001e0 60 04 0a bd 8f a9 84 3d 48 fe 78 3e a2 88 bc bc
       -0.03369558 0.06477653 0.2431575 -0.02301437
0001f0 1d 7d 23 3e 16 6c 3a bd 8f 21 67 be 71 b2 c9 bd
       0.15965696 -0.045513235 -0.22571395 -0.09848488
000200 68 f7 80 3d 6d e1 1d 3e 02 da 36 be 60 a2 3a bc
       0.06297189 0.15418024 -0.17856601 -0.011391252
000210 84 65 25 3e 6f 39 bf 3d 34 54 b2 3d bd 59 58 3e
       0.16152006 0.093371265 0.08707467 0.21127982
000220 38 a6 62 3e b3 77 25 3e 16 c0 60 bd a6 6f 80 bd
       0.2213372 0.16158943 -0.054870687 -0.06271295
000230 6d 1e 07 3d 70 50 8a 3d f2 12 28 bc 78 05 4a 3e
       0.032988 0.067536235 -0.010258423 0.19728649
000240 5b 49 c9 3d d4 7a 47 3c 37 7c 0b 3e e9 b8 d2 3d
       0.098284446 0.012175281 0.13621603 0.10289175
000250 08 23 32 3e b0 8c 4c 3e 38 1f 83 bc 3f 98 81 3e
       0.17396176 0.19975543 -0.016006097 0.25311467
000260 d5 ba 59 3d 60 f4 17 bd 6e d2 50 be 72 a2 0f be
       0.053156693 -0.03709829 -0.20392773 -0.14026812
000270 e2 c1 10 be 84 4b ce bd 8a 8e 05 3e e9 1d ab bd
       -0.1413646 -0.10072997 0.13042656 -0.08355314
000280 c4 d1 1d be 53 82 99 3d fa 8a 28 3e 49 15 3b 3e
       -0.1541205 0.074955605 0.16459265 0.18269838
000290 95 8e 4c bd 07 8e 13 3e c7 24 78 bc 9e e9 98 3b
       -0.049940664 0.14409648 -0.015145487 0.004666521
0002a0 dd 2f 41 bd c0 bf af bc 1d ca 03 3c d6 65 3a 3e
       -0.047164787 -0.021453738 0.008043793 0.1820291
0002b0 c2 29 cd 3d f0 38 da 3d 21 10 96 3e d6 81 7f 3e
       0.1001773 0.10655391 0.2930918 0.24951872
0002c0 a2 b1 41 3e fd 1a e2 3d a2 61 7a bd 37 01 68 3e
       0.18915418 0.11040304 -0.061128266 0.22656713
0002d0 4d e5 d5 bc 8d cf a3 bc e7 b2 30 be a3 49 a6 bc
       -0.026110316 -0.019996429 -0.17255746 -0.020298785
0002e0 1a 4c 0a be bd ec 2a 3e 79 87 14 be 98 b0 18 be
       -0.13505593 0.16691871 -0.14504804 -0.14911115
0002f0 13 36 2c 3b 12 ad 21 be 8a bd 74 3c 4b ec df bd
       0.0026277348 -0.15788677 0.014937768 -0.10933741
000300 a6 f7 15 be a2 62 50 bd 97 b2 c9 3d 8b a3 48 be
       -0.14645252 -0.050875314 0.098485164 -0.19593637
000310 b4 87 b1 3c 4e 1a 9e 3d 77 12 4a 3e e5 ba fd bd
       0.021671154 0.07719861 0.19733606 -0.12389163
000320 49 2e 96 3d 17 07 0c be 5d c2 2b 3e 20 9c 5b bd
       0.07333047 -0.1367458 0.16773362 -0.05361569
000330 65 27 ec 3d a0 74 e6 39 ad 75 b1 ba 5c 13 fc 3c
       0.115309514 0.0004395591 -0.0013539098 0.03077095
000340 5a f1 92 3d 55 9c 10 3e b0 af 86 3d 7b f7 be 3d
       0.071749404 0.14122136 0.065764785 0.09324547
000350 a7 45 00 be 6b bf 2e 3e bf ff 48 3e de b5 4e 3e
       -0.1252657 0.17065208 0.1962881 0.20186564

conv1.bias f4 [8]
000000 3d 4c 88 3e 43 10 73 be 3b b4 fe bd 4d cf 7f 3e
       0.26620665 -0.23736672 -0.1243672 0.24981423
000010 9a 07 e9 be 12 14 e9 3d 24 b7 81 be 36 cc 4b be
       -0.45513612 0.11380781 -0.25335038 -0.19902119

conv2.weight f4 [16, 8, 3, 3]
000000 46 73 4d 3d 3f 34 95 bd cd bd 37 bd 06 a6 24 3d
       0.05015876 -0.07285356 -0.044858743 0.040197395
000010 ae 4b 2e 3d 2f f4 8d 3c af 58 71 bd fa 8d 13 be
       0.042552643 0.01732835 -0.058922466 -0.14409629
000020 38 77 4b 3d f3 5d 8d 3d ba e4 5f 3d 04 5f 80 3d
       0.049674243 0.06902685 0.05466149 0.06268123
000030 89 c0 2e bd 79 11 b5 3d 1b 1b 2a 3d d1 f4 ea bd
       -0.042664085 0.08841223 0.041529756 -0.11472476
000040 e8 97 ee bd 36 d5 b3 bd b5 10 e6 3d 3d b1 45 3d
       -0.116500676 -0.08780901 0.11233655 0.04826473
000050 57 e1 88 bd d2 dd 07 3d 2f ce d9 bd 93 65 e3 bd
       -0.06683605 0.03317053 -0.106350295 -0.11103358
000060 5b 95 ce bd a6 12 a3 3d e8 22 0b 3d 90 7f 5e be
       -0.10087081 0.07962541 0.033968836 -0.21728349
000070 5e 7e ba bd 0f 3d 7f 3c 7e 9c 50 bd 46 f2 a1 bd
       -0.09106134 0.015578522 -0.050930493 -0.07907538
000080 21 cf d3 3d e4 bc ad 3d 42 04 98 3d ef 08 e2 3d
       0.10342241 0.08483294 0.07422687 0.1103686
000090 76 e3 2b 3e b9 11 1f 3e 59 d8 80 bd f1 17 e8 3d
       0.16785988 0.15534104 -0.06291265 0.113326915
0000a0 f9 43 a4 3c 0d 0b 01 be 79 39 bc 3c 2a f5 f1 bd
       0.020051943 -0.12601872 0.022976624 -0.118143395
0000b0 58 cd 2d 3d 24 4a 2d 3d bc 9b 04 3e a4 60 48 3d
       0.04243216 0.042307034 0.12950033 0.04892029
0000c0 99 0e 81 3d 03 8a c7 3d 7a 9e cf bd e3 e0 b1 bd
       0.063016124 0.097431205 -0.10137649 -0.08685472
0000d0 e1 de 26 be 0f 7e b0 bd f3 37 05 3d 8f 59 b9 3d
       -0.16295959 -0.08617794 0.03252406 0.09050285
0000e0 2f a3 d7 bb f4 9c 8b 3d cf 9e c3 3d b0 b2 48 bb
       -0.0065807323 0.06817046 0.09551775 -0.0030624084
0000f0 ea d4 70 bd 0d 8b a9 bd c5 09 35 be 43 9e be 3d
       -0.0587968 -0.08278475 -0.17679508 0.0930753
000100 d6 38 eb bc b7 36 85 3c ca 2d ee bc 5e ee db bd
       -0.028713625 0.016261442 -0.029074568 -0.10738824
000110 35 c5 0b 3d 69 1c a0 3c ff b7 cd bc 7d c2 89 bd
       0.03412362 0.019544797 -0.02511215 -0.06726549
000120 69 70 7d bd a0 16 93 bb 45 c7 93 bd d6 ee 97 bd
       -0.06187478 -0.004488781 -0.07215742 -0.07418601
000130 66 43 c1 bc be ed 28 bd c0 43 ba 3c db 57 15 bd
       -0.023591708 -0.041242354 0.022737384 -0.03646074
000140 19 51 ad bc 18 d4 82 bd 35 8e db bd 36 e7 d2 3d
       -0.021156834 -0.0638811 -0.10720483 0.10298006
000150 e9 27 56 3c 5b 04 e0 3d ec 83 fa bb 8c a4 14 bd
       0.013071039 0.10938331 -0.007645121 -0.036289737
000160 8e 48 d9 bd fe 18 1e bd b0 a8 6e 3d 1e 77 ef bd
       -0.10609542 -0.038598053 0.05826634 -0.11692642
000170 a4 62 1d bd ce a9 74 3d 80 2a 8e 3d 98 3c 4b 3d
       -0.03842415 0.05973225 0.069417 0.049618334
000180 ea 85 e7 bc 6e d0 ea bb 3e 6f 99 bc ee b6 48 bd
       -0.028262097 -0.00716596 -0.018729802 -0.04900258
000190 13 04 42 3d c3 34 36 bd 11 15 8d bd f0 31 b2 3c
       0.047367167 -0.04448391 -0.06888784 0.021752328
0001a0 f4 b1 b3 bd b0 2b 12 bd 02 2b 59 3d cf 18 20 3d
       -0.08774176 -0.035686195 0.05301953 0.03908616
0001b0 4b df a4 3d 77 89 9f bd a8 9e d9 3b 57 76 25 bd
       0.08050402 -0.07789891 0.0066412278 -0.04039606
0001c0 2e 0e 67 bd 45 15 3d bd 01 02 ae 3c 2e 4d 8c 3c
       -0.056410007 -0.046162862 0.02124119 0.017126646
0001d0 20 2e 52 bd a4 36 d2 bd e5 02 d8 bd bb 8a f4 3d
       -0.05131352 -0.10264328 -0.10547427 0.11940523
0001e0 34 2e 00 bd 2c b3 bf bc 1e f6 03 bd ce 1c 8a bd
       -0.031294063 -0.023400865 -0.032217138 -0.06743775
0001f0 2f fa d4 bd b6 20 90 bd d5 ca 55 3d 75 3f c4 3c
       -0.10399281 -0.07037489 0.05219539 0.02395604
000200 ba e7 25 bd f5 03 63 bd d7 49 a1 3d 66 f8 c0 3d
       -0.040504195 -0.055423696 0.07875412 0.09422378
000210 26 b1 da 3d 93 79 1d 3d 29 63 78 3d ed fb 88 bc
       0.1067832 0.03844602 0.06064144 -0.01672169
000220 1d 31 8b bd e9 fe e1 bd d4 bd 91 3d 73 86 fc bb
       -0.06796477 -0.110349484 0.07116285 -0.0077064573
000230 37 84 74 3d e5 ff 48 3a 5c 4e de bd 77 e0 58 bd
       0.059696402 0.0007667526 -0.108547896 -0.05294844
000240 f9 ff cf bd 50 09 1a be 4a 3e a8 bd e8 35 69 bd
       -0.10156245 -0.15042615 -0.08215006 -0.056936175
000250 8f 49 10 be 5f e4 92 bc b1 c1 00 bd 4a a9 a8 bd
       -0.1409056 -0.017931161 -0.03143472 -0.08235414
000260 fb ef c3 bc 0e 3b 65 3c 23 d2 08 bd 69 68 ee 3d
       -0.023918143 0.0139911305 -0.033403527 0.116410084
000270 7f 61 05 be 36 9c 26 be 43 46 83 3e 80 89 db bd
       -0.13025473 -0.16270527 0.25639543 -0.107195854
000280 d7 ef 9e bd ae fa 53 3e 06 9a bc bd 8f 40 0a bd
       -0.077605896 0.20701095 -0.09209065 -0.033752974
000290 0d 14 8b 3d 77 0d 32 be 88 47 2b bd ec 21 51 3e
       0.06790934 -0.17387949 -0.041816264 0.20423096
0002a0 d3 62 b0 bd d7 94 87 bd 59 08 46 3e ee 5e 37 3e
       -0.08612599 -0.06620186 0.19339122 0.17907307
0002b0 95 43 0b 3d 7a f6 aa bd 85 39 91 3e 9c af 2b 3d
       0.033999998 -0.08347793 0.28364196 0.04191552
0002c0 c5 a8 38 be ef a6 5e 3e 53 d6 56 bd 00 80 4b be
       -0.1803313 0.21743368 -0.05245049 -0.19873047
0002d0 39 fb 07 be 4f cb 10 be 54 73 8d 3d ab 59 41 be
       -0.13279428 -0.14140056 0.06906763 -0.18881862
0002e0 55 e5 5b 3d 53 18 ca 3d 4f e6 b4 bd a2 1e b7 3d
       0.053685505 0.09867921 -0.088329904 0.089413896
0002f0 e6 aa 28 3e be fb 5b be 23 0b fb 3c 08 c6 2b 3e
       0.16471443 -0.21482751 0.030644959 0.16774762
000300 4b 91 5d be 16 24 02 3e c5 69 d5 3d ec 90 06 be
       -0.21637456 0.12709078 0.104205646 -0.13141221
000310 43 5e 03 bd 78 8c 61 3e 9b 7c 83 bd 7c dc 29 3d
       -0.032072317 0.22026241 -0.06420251 0.041470036
000320 68 e8 b3 3d 51 65 11 bd 70 10 92 bd 34 3b 47 3d
       0.08784562 -0.035497013 -0.071320415 0.048640445
000330 8f f3 37 bd ff dc b1 3c 35 91 ba 3d a0 90 90 bd
       -0.04491001 0.021711824 0.09109727 -0.07058835
000340 8d 05 1a bc 05 f3 33 3d 00 3c 19 3d 3b 4e c1 bd
       -0.0094007375 0.043932933 0.037410736 -0.094387494
000350 fa 64 99 3d 37 0b 7a 3c 07 6f f3 3d ae 70 f2 3d
       0.07489963 0.015261463 0.11886411 0.11837898
000360 90 51 68 be d7 1f dd 3c ea 40 d3 bd 3b 91 4c bd
       -0.22687364 0.026992721 -0.10315116 -0.04994319
000370 fd e7 d0 bd b1 e1 71 3d 6d cb 25 be dd 82 b4 bc
       -0.10200498 0.059053127 -0.16190882 -0.022035057
000380 81 56 a0 bd 2f 18 8e be 9d 60 13 3c 3f 2e 21 3e
       -0.07828999 -0.27752826 0.008995202 0.15740298
000390 33 8d 03 bd 47 91 6c bc 94 6d 73 3e df 7e cd bc
       -0.03211708 -0.014438934 0.2377227 -0.02508491
0003a0 34 35 7b bd 67 42 dd 3b bb e1 1c be 4a e1 1c bd
       -0.061330035 0.0067523005 -0.15320484 -0.03830079
0003b0 26 6f 26 3e 6a 0c 94 be 37 6a da 3d 59 79 10 3e
       0.16253337 -0.2891572 0.1066479 0.1410879
0003c0 cd f5 e1 bd 00 0f 97 3d 03 a1 3b 3c 55 20 d6 3d
       -0.11033211 0.07375908 0.011451962 0.104553856
0003d0 9b ea 05 be 9d 5c 49 be 6a fb d9 3d 3c 82 2e be
       -0.13077776 -0.19664235 0.106436566 -0.17041868
0003e0 12 d4 9c 3c ec 6a 4f 3e 65 1c b1 3c b2 d3 7e 3d
       0.019144092 0.20255631 0.021619985 0.062213607
0003f0 22 a1 b2 be 14 64 c2 3d b0 d3 40 3e 35 23 81 be
       -0.3488856 0.09491745 0.18830752 -0.25222173

conv2.bias f4 [16]
000000 78 bd 22 3d 10 4a a5 b9 94 d0 d1 bc 10 38 ae 3d
       0.039731473 -0.00031526433 -0.025612153 0.08506787
000010 97 9d 06 3e 08 bd bd 3a 16 f4 4e bd 00 8e 5f 3d
       0.13146053 0.0014475891 -0.050525747 0.05457878
000020 e9 09 a0 3d 9c 68 12 be 8b 80 1c be af e2 10 3e
       0.0781439 -0.14297718 -0.1528341 0.14148973
000030 3d ee ea 3d 1c 71 30 bd 80 e4 25 bd ac 7d 95 bd
       0.114712216 -0.04307662 -0.040501118 -0.07299361

conv3.weight f4 [32, 16, 3, 3]
000000 ef 2c a3 bc 38 18 00 3e 24 fa d6 3c 91 94 33 3d
       -0.019918887 0.12509239 0.026242323 0.043842856
000010 95 03 e0 bd 90 d7 87 bd e4 75 12 bd a3 34 83 bb
       -0.10938183 -0.06632912 -0.03575696 -0.0040040775
000020 2a f6 60 bd f0 35 21 bd 89 2f 20 bd a3 ae 51 bd
       -0.05492226 -0.03935808 -0.039107833 -0.051191937
000030 7a eb 71 bd 29 a4 59 bd 67 9c a0 3d 70 74 25 bd
       -0.05906246 -0.05313507 0.078423314 -0.040394247
000040 79 f6 92 bd 2f 90 64 3d 27 21 04 3b 69 45 4f bc
       -0.07175917 0.055801567 0.0020161362 -0.012650826
000050 77 58 fb bd 03 d6 ae bd 75 40 dd bd 52 d1 75 bd
       -0.12272733 -0.08536913 -0.1080331 -0.060014077
000060 35 d3 08 3d e6 b2 31 3d a5 d6 88 3d 27 3e 83 bd
       0.033404548 0.0433835 0.06681565 -0.06408339
000070 21 92 28 bd 2b 38 f7 bd d1 4c 52 3c 32 0d e8 bd
       -0.041154984 -0.1207126 0.012835697 -0.11330642
000080 dc d7 b4 bd bb 49 2e 3d 46 98 07 bd 2e d2 99 3d
       -0.088302344 0.042550784 -0.033104204 0.07510792
000090 79 85 b2 3d fe ab 11 3e 31 d2 b3 3d 02 c6 ae 3a
       0.08716864 0.14225766 0.08780325 0.0013334157
0000a0 a2 62 f9 3d 75 9b 8e 3d 2c 13 6b 3d 50 8c 56 bd
       0.12177016 0.06963245 0.05739133 -0.052379906
0000b0 3a 31 71 3d 37 c2 9c bd 89 ac d6 3b 0d 9f c8 bd
       0.058884837 -0.07654231 0.0065513295 -0.097959615
0000c0 14 8c 00 3d a9 d5 30 bd 2e 9c 18 3c 0f b7 b6 bd
       0.03138359 -0.043172512 0.00931458 -0.089216344
0000d0 fa 42 db bd cd dd 90 3d 60 eb c7 bc 03 f8 5e bc
       -0.10706134 0.07073555 -0.024404228 -0.013608935
0000e0 7a 3a 71 bd 45 9e c5 bb 8f 12 c6 3c 43 65 05 3e
       -0.05889366 -0.00603083 0.024178771 0.1302691
0000f0 67 4b 9c 3d fc ab 5a 3d 86 ab 6c 3d 20 76 e8 3c
       0.07631569 0.053386673 0.057780765 0.028376639
000100 1d d6 f6 3d da db 09 3d 8b 92 a5 bc b7 82 8d bd
       0.120525576 0.033656932 -0.020211479 -0.069096975
000110 41 60 b2 3c aa 36 1d bd a1 84 a5 39 40 e3 cc 3c
       0.021774413 -0.03838221 0.0003157007 0.025010705
000120 84 0e c8 bd e3 78 a0 bd 62 e7 1a bc 46 f3 d3 bc
       -0.09768394 -0.07835557 -0.00945458 -0.025872838
000130 e2 5e c0 bd 6f 20 a1 bd 08 f3 8f bd a2 f5 3d bd
       -0.093930975 -0.07867514 -0.070287764 -0.04637683
000140 93 56 0d 3d 73 eb 20 3a 3f 52 32 3d 33 e8 aa bd
       0.03450639 0.00061386003 0.043535467 -0.0834507
000150 27 17 b4 3c 3a e5 ae bd 94 7a 31 bd ae 9b 6f 3d
       0.021983696 -0.08539815 -0.04332979 0.058498077
000160 97 8a 12 3d f0 f6 20 3e a5 31 c0 3d b4 74 8f bd
       0.0357767 0.15719199 0.09384469 -0.07004681
000170 55 de 57 3d 48 4a b7 bc 0e 01 00 be e6 23 0f be
       0.052702267 -0.022374287 -0.12500402 -0.13978538
000180 b1 6b 63 bd f9 d0 d2 bb 2b 2c 14 3d 97 59 ff 3d
       -0.055522624 -0.006433603 0.036174934 0.1246826
000190 37 f3 da 3d e0 5a 22 3e 7a 8e 9e 3d a8 b5 a8 3d
       0.10690921 0.15854979 0.07742019 0.08237773
0001a0 65 28 8e 3d f7 b5 aa bd f2 c3 53 bc 3b aa 36 bd
       0.069412984 -0.08335488 -0.012925135 -0.04459594
0001b0 ab f4 09 bd 8a 8a e7 bd 9f ea c1 bd a5 15 92 bd
       -0.0336806 -0.11305721 -0.094685785 -0.071330346
0001c0 c1 41 b1 bd c8 8c ae bd 68 45 75 bd 77 9d ba 3c
       -0.0865512 -0.08522946 -0.059880644 0.022780163
0001d0 bf 93 0f 3d 35 54 25 3d 9e 2d 30 3c 83 11 20 3d
       0.03505301 0.04036351 0.0107530635 0.0390792
0001e0 86 b4 a6 bc f7 b3 09 3e 4b 3a 12 3e ce 21 39 bc
       -0.020349752 0.13447557 0.1428005 -0.011299564
0001f0 00 93 ac 3d b3 f9 db 3d 08 56 a2 3a 71 fa da 3a
       0.084264755 0.10740986 0.0012385258 0.0016706717
000200 f4 50 da 3c e1 68 4e bc 9c 7a 34 be f4 5b 7a bd
       0.02664993 -0.012598247 -0.17624897 -0.06112285
000210 bc 64 b0 bc cb 4d c9 3c 3b 24 90 3c e5 e4 82 3d
       -0.021532409 0.024573227 0.017595401 0.063913144
000220 6f c3 9a 3d 8d b7 cb bc db d4 7b 3c fa ee 56 bc
       0.07556807 -0.024867797 0.015370573 -0.0131185
000230 9b 0b 1a bd 0e 1e 5f bd a5 a2 3b 3b 9a 54 06 3d
       -0.037608724 -0.05447202 0.002863088 0.032795526
000240 9f d5 10 3d 5c 67 69 3d 83 7e a8 3d 8d 20 96 3d
       0.035359975 0.056983337 0.08227255 0.07330427
000250 89 07 1f 3c 0e 71 67 3b ef 01 cb bd a1 8c f1 bd
       0.009706386 0.0035315189 -0.09912478 -0.11794401
000260 27 ad a5 bd 3e 95 61 3d 0b f5 95 bd 7c 4d 7a bd
       -0.08089667 0.05507397 -0.07322129 -0.06110905
000270 4b ed 67 3d f8 07 4a 3d 93 54 9f bd 18 50 4d 3d
       0.056622785 0.049324006 -0.07779803 0.05012521
000280 d6 d3 9a bc 56 b5 97 3c a2 31 9c bd 1b d9 aa bd
       -0.01889984 0.018519085 -0.07626654 -0.08342191
000290 fb 3d 9b bc 20 2e b8 bc c5 df 3f bb 79 a5 7c bc
       -0.018950453 -0.022482932 -0.0029277664 -0.015420311
0002a0 0f 1a 5b bd c5 ed b6 3a 8f 4a ef 3d 9e c1 e1 3d
       -0.05349165 0.0013956359 0.11684143 0.11023258
0002b0 a6 20 38 be 0d c0 d1 bd 37 6b 82 bb cf 9e 03 be
       -0.17981204 -0.10241709 -0.003980066 -0.1285355
0002c0 15 dd d5 bc 29 5a 49 bd 86 6b 63 be e6 f0 65 bd
       -0.026106397 -0.04915825 -0.22208986 -0.05613794
0002d0 05 d2 20 bd 87 50 d9 bc 0f 86 c5 3d 62 64 be 3d
       -0.03926279 -0.026527656 0.0964471 0.0929649
0002e0 80 e0 c3 3d ab 42 c7 3d 9d ee 08 3e a9 5f 00 3e
       0.09564304 0.09729513 0.13372274 0.12536491
0002f0 ce 83 04 3e 45 4c 93 3d 85 74 93 3c a4 86 09 be
       0.12940904 0.07192282 0.017999897 -0.13430268
000300 4d 45 79 bc a2 c4 22 3d f7 de 55 bd 28 10 fc bd
       -0.0152142765 0.039738305 -0.05221459 -0.12307769
000310 3b 15 8d bc a2 9b b7 3d 8f 86 87 3d 5b 96 87 bd
       -0.017222038 0.089652315 0.06617462 -0.06620475
000320 b8 a1 52 3d 62 0e b2 bd 0f 6b ca bd 49 91 bc bb
       0.05142376 -0.086941496 -0.09883701 -0.005754624
000330 b1 76 c3 3d 77 40 47 3d 48 81 4c 3e f7 67 dd bd
       0.09544123 0.048645463 0.19971192 -0.10810845
000340 2e b7 5a bc b9 52 23 3d 96 bb 26 bd 86 41 5b 3d
       -0.0133493375 0.039873812 -0.04070624 0.053529285
000350 8d 1a 20 3d 2e e1 3e bd 20 93 53 3d a4 16 ab 3d
       0.03908782 -0.046601467 0.05165398 0.08353928
000360 dd b0 8c bd e9 53 f3 bc c1 41 33 3d da df 4f bd
       -0.068696715 -0.029703097 0.04376388 -0.05075059
000370 59 ff 04 bd 34 3e 66 bd 7b 24 e3 3c 06 57 55 bc
       -0.03247008 -0.056211665 0.027727356 -0.013021236
000380 f7 e2 5e 3d 79 b7 02 3e e0 78 b9 bc 82 f1 05 be
       0.05441567 0.12765302 -0.022640646 -0.13080409
000390 be e4 e8 bc 2b ef a1 bd 57 59 c8 bb 64 14 d6 3c
       -0.028429385 -0.07906946 -0.0061141658 0.02613277
0003a0 4d 67 8c bd 1a 68 c9 3c e2 b0 05 3e 43 d2 c8 3d
       -0.068556406 0.024585772 0.13055757 0.09805729
0003b0 e1 96 e2 3c ba 12 86 3d 8b cc 7e bb a4 29 ee bd
       0.027659835 0.065465406 -0.0038879241 -0.11629036
0003c0 86 ae 6f bd 60 0b cd bd 2c ee 14 be 64 31 82 bc
       -0.058516048 -0.10011935 -0.1454398 -0.015892692
0003d0 3c e0 74 3d 05 76 2d 3e 0b 7a 1c bd 05 52 47 3e
       0.05978416 0.16939552 -0.038202327 0.19464882
0003e0 a2 fd bc 3d 61 71 e6 3d e3 3f 08 3e 71 91 a2 3d
       0.09228064 0.11252094 0.13305621 0.07937897
0003f0 e2 3f 28 bd f8 8d 51 3a 2d de 6d bd e8 53 9a 3b
       -0.04107655 0.0007993872 -0.05807321 0.0047097094

conv3.bias f4 [32]
000000 07 44 97 bd ed 4d 88 bd 1a e0 4a bd d3 24 b9 bb
       -0.07386022 -0.06655488 -0.049530126 -0.0056501417
000010 6d 56 9d 3c a2 a5 bf bc ab f0 bc bc 6d 17 7a 3d
       0.01920625 -0.02339441 -0.023063978 0.061057497
000020 02 c5 0d 3e 77 d7 44 39 54 d2 8e bc 3a 43 92 3b
       0.13844684 0.00018772284 -0.017434277 0.0044635804
000030 84 75 04 bd 62 37 1c 3c ab 66 3a 3d 1c d5 70 3d
       -0.032338634 0.009534689 0.045508068 0.058796987
000040 6d 5e 21 3d 4e 34 9e 3c 5f 5f 06 bc f7 7d 91 3d
       0.039396692 0.01931205 -0.008201449 0.07104104
000050 9f 85 d2 3c 13 ef ab 3d 6b 19 99 bb db 8f 6b 3c
       0.025698481 0.08395209 -0.0046722195 0.01437756
000060 1e cb ce bb ee 88 26 3c 46 d3 90 bd d7 59 b7 3c
       -0.0063108345 0.0101644825 -0.07071547 0.022381706
000070 c5 ad 24 bd 2c bb d5 bb 9b 5f 96 bc f0 32 90 bd
       -0.040204782 -0.0065225568 -0.018356135 -0.070409656

fc1.weight f4 [128, 512]
000000 87 51 26 bd 16 31 3d 3d 07 90 84 bd 3d c4 cb bc
       -0.040605094 0.04618939 -0.064727835 -0.024873847
000010 78 e5 a1 3d 09 4e 09 3d 8b a2 82 3c de 46 8d bd
       0.07905096 0.033521686 0.015946647 -0.068982825
000020 8f 44 92 bc 55 c6 81 bd 89 3f 7d 3d dd f8 a4 3d
       -0.017854957 -0.06336657 0.06182817 0.080552794
000030 87 8a 01 bd 07 1b 72 bd 77 5b e6 3c 08 b1 a3 3d
       -0.03162625 -0.059107807 0.028119786 0.079927504
000040 e0 b6 1c 3d 27 32 b9 bc 70 89 29 3d 97 66 0b 3b
       0.03826034 -0.022606922 0.041390836 0.0021270865
000050 13 6e a0 3b 34 37 43 bd 1d 75 58 bd f5 83 29 bb
       0.0048959344 -0.047660068 -0.052846063 -0.0025866006
000060 3b ca 86 bd bc 79 31 3b 4d bf 86 3d f0 22 74 3d
       -0.06581541 0.0027080616 0.065794565 0.05960363
000070 2c d0 12 3c 76 93 f5 3c b1 b2 20 3d 11 78 b0 3d
       0.008960765 0.029977541 0.039232913 0.08616651
000080 b0 e2 d9 3c 3f f7 50 bc ef 05 57 bc 46 05 ad bc
       0.02659735 -0.012754261 -0.013123973 -0.021120679
000090 49 42 3b bc a8 ce b9 bc ec 9e ab bc a9 d3 83 bc
       -0.011429378 -0.02268155 -0.020949803 -0.016092138
0000a0 d0 e1 1d bd a5 54 3d 3c 8d 23 43 3d 73 b8 28 3d
       -0.03854543 0.011555825 0.047641326 0.04119153
0000b0 8c ef 0b bc f9 5f 59 bb 1a 9f 51 3c 89 e1 8b 3d
       -0.008540999 -0.0033168776 0.01279428 0.06830127
0000c0 ce d5 0a bd d1 f1 18 bd 95 8d 26 3d 86 24 4e 3b
       -0.033895306 -0.03733999 0.040662367 0.0031454875
0000d0 34 c2 0d 3d d3 dc 4c 3d d3 02 bb 3c 5c 01 9e 3d
       0.034609035 0.050015282 0.022828495 0.07715103
0000e0 8e 5c a2 3c f8 6b 5c bc 2c b8 32 3c 5b e6 78 3c
       0.019819524 -0.013453476 0.010908168 0.01519164
0000f0 57 f6 e3 bc 47 d0 d1 3c 23 27 93 bc 63 e5 bf bc
       -0.027827425 0.02561201 -0.017962998 -0.02342481
000100 4e db 81 bc b8 34 bd 3c f3 46 92 3c 11 a0 bb bc
       -0.015851643 0.023096427 0.017856097 -0.022903474
000110 68 32 a3 3d 21 b9 02 3c 82 f4 b8 bc 8f 89 08 bd
       0.079685986 0.0079787085 -0.022577528 -0.03333431
000120 29 ac 0d 3d 0d 22 b4 3c b9 ac 3c bd c9 24 4a 3d
       0.034588013 0.021988893 -0.04606316 0.049351487
000130 1f 0f a1 3b ec dd 9f bd 08 f9 1b 3c 6a ad 2f 3c
       0.0049151327 -0.07806 0.009519823 0.0107224975
000140 2c 65 56 3d b7 1b 6b 3b bf e5 ac 3c 7e dc 99 bb
       0.05234258 0.0035874674 0.021105645 -0.004695474
000150 2b f9 9e b9 41 af a6 3d f2 b9 13 3c a9 c6 97 bd
       -0.00030321753 0.08138896 0.009016501 -0.07410938
000160 09 de 68 bd 01 c8 21 bd d6 b1 a5 3d c1 8a 90 3d
       -0.056852374 -0.03949738 0.0809056 0.07057715
000170 e9 fe aa bd 5e 1d a9 bd c7 1b 9f 3d 47 93 47 3d
       -0.083494015 -0.082575545 0.0776897 0.04872444
000180 f1 e2 5b 3d 27 dc 52 bd e7 3f 4a bc bf d3 0f bd
       0.053683225 -0.051479485 -0.012344337 -0.035114046
000190 36 c7 8e 3d 1f 13 4e 3d 75 3e 40 bd f9 37 ea bc
       0.0697159 0.050311204 -0.046934564 -0.028591143
0001a0 d7 6c b3 3d f9 64 42 bc ba 71 98 bd 4c eb fe 3c
       0.08760994 -0.011864894 -0.074435666 0.031118058
0001b0 40 b8 3e 3d 3c 00 ac bd df 3d 94 bc fb d1 96 3d
       0.046562433 -0.08398482 -0.018095909 0.07364269
0001c0 bf 1a b6 3c 31 f0 83 3d 1e b2 8d 3c c3 5b a3 3d
       0.02222955 0.06442297 0.017296847 0.079764865
0001d0 7c 01 13 3b 08 3b 6b 3c 9f d0 09 3d e0 be 41 3d
       0.0022431305 0.014357336 0.033646222 0.047301173
0001e0 eb dd 06 3e fd b4 8c 3d 86 a7 c2 bb 88 da a7 3b
       0.13170592 0.06870458 -0.0059403805 0.0051224865
0001f0 65 a9 0d ba 9f 8b ac 3b a1 5b 57 bc ae 24 94 bc
       -0.0005403965 0.0052656676 -0.013144405 -0.018083896
000200 ee 0e 9e ba 82 f8 32 3c e5 55 cc bc 6c bb 49 bc
       -0.0012058893 0.010923507 -0.024943301 -0.012312751
000210 30 b8 7d bc 19 de db 3d e3 b9 94 bd 64 a7 7e 3c
       -0.015485808 0.10735721 -0.072620176 0.015542839
000220 45 41 43 bd 73 73 44 bd 1d 85 d9 bc 2a 01 92 bc
       -0.047669668 -0.047961663 -0.026552731 -0.01782282
000230 fc f2 2c bd b6 83 a3 bd 3d 4c e7 3c 64 8f ea 3b
       -0.042223915 -0.07984106 0.028234595 0.007158207
000240 5e 88 28 bd 74 b0 27 bd 84 2f eb ba fa c9 e4 3c
       -0.041145675 -0.040939763 -0.0017943238 0.027928341
000250 71 8a 0f bd 50 d1 c1 ba 9f 21 10 bd bf a0 7c bd
       -0.035044137 -0.0014787111 -0.035188314 -0.061676737
000260 a8 ec 31 bd 40 d9 a1 bd d0 c6 e3 bc f2 4a 75 bc
       -0.043438584 -0.07902765 -0.027804762 -0.014971482
000270 4e 98 9c bd a0 c9 16 bd 65 b2 12 bd 5b 7a 37 bd
       -0.07646237 -0.03681338 -0.03581466 -0.04479442
000280 11 15 bd 3b bd 55 26 3c 96 fd 00 bd e8 ee 0d bd
       0.0057703336 0.010152278 -0.03149184 -0.034651667
000290 9b 4d a0 3c b9 48 a0 bc 41 89 b7 3b bf da 16 3d
       0.019568255 -0.019565927 0.0056010787 0.036829706
0002a0 b1 f9 71 3c e6 02 9a 3c 3b c2 0c 3d de d5 ad bc
       0.014769004 0.01880021 0.03436492 -0.021220144
0002b0 69 6a 46 3c a5 25 15 3d 85 f8 0e bd 42 92 3c 3c
       0.012110331 0.036412854 -0.034904975 0.01150948
0002c0 14 75 17 3d 57 bf 11 3c 68 88 89 bc 7c a1 2c bd
       0.03697689 0.008895717 -0.016788676 -0.04214619
0002d0 da 4e cf bc 10 02 8d 3a 39 33 24 3d 4d 99 99 3c
       -0.025306154 0.0010758061 0.040087912 0.018749857
0002e0 61 d2 e7 bd 93 71 4b 3d fd b9 f8 3d 06 d3 ec 3d
       -0.113194235 0.04966886 0.121448494 0.11563687
0002f0 d3 78 f7 bc 4c 63 41 bb df a6 80 3c 2f cf 26 3d
       -0.03020898 -0.0029508648 0.01570457 0.04072493
000300 60 01 aa bd 26 b5 e4 bc d0 b4 3e 3d b1 d8 20 3c
       -0.083010435 -0.02791841 0.046559155 0.009817288
000310 37 08 27 3d 8d 12 05 3d cd 76 a9 3b 48 78 ad bc
       0.04077932 0.032488395 0.005171633 -0.021175519
000320 35 e6 27 bd 2e d4 12 3d 33 8f fa bc be 28 d8 bc
       -0.040991027 0.03584688 -0.03058586 -0.026386615
000330 e6 1a 5a bd 54 a3 53 3d cc 14 1c bd ea 2f 93 bb
       -0.05324831 0.051669434 -0.03810577 -0.004491796
000340 bf c5 0f 3d f2 31 ac 3c 91 f0 8e 3c 2c ec 3b bd
       0.035100695 0.02101991 0.017448695 -0.045879528
000350 d3 a4 1d 3c 7e cf 4c bc 88 18 26 bd 3a 11 71 3d
       0.009621817 -0.012500642 -0.04055074 0.05885432
000360 6f 1d d5 bc 18 fb b7 bd e7 cc b7 bc 11 5d f2 3c
       -0.026015012 -0.08983439 -0.022436572 0.029585393
000370 86 62 53 bd 5c 50 7b bd ea 52 6d bd 3a 74 9d bc
       -0.05160763 -0.061355934 -0.0579404 -0.01922046
000380 7e a3 84 3c 8e c2 18 bc b1 cc 7a 3c b8 f7 69 bd
       0.01619124 -0.009323729 0.015307591 -0.05712101
000390 c9 44 a5 3b fc 5a 28 3d f6 09 bb b9 91 b5 16 3a
       0.0050436 0.041102394 -0.0003567484 0.00057491014
0003a0 45 ef 05 bd 65 81 2e 3c 14 4c 9c 3c 2b b1 83 3d
       -0.03269889 0.010650967 0.019079246 0.064302765
0003b0 9e 40 2b bd 55 b1 0b bd a8 91 2a 3d 82 74 28 3d
       -0.04180967 -0.034104664 0.041642815 0.041126736
0003c0 e8 86 88 3d d1 58 8c 3d d0 0e 55 bc 0a f5 9e bd
       0.06666356 0.06852878 -0.01300402 -0.07761581
0003d0 db d1 80 3d 62 28 bf ba 54 c9 d4 3a af f9 f8 3a
       0.06290027 -0.0014584179 0.0016234317 0.001899531
0003e0 48 96 5d bc 60 19 7b bc 51 fa 93 3d 95 fc b4 3d
       -0.013524599 -0.015325874 0.072254784 0.08837239
0003f0 f7 79 e0 38 9a 60 98 bc 5a 20 07 3c da 40 2b 3d
       0.0001070387 -0.01860075 0.008247459 0.041809894

fc1.bias f4 [128]
000000 da 8d 04 bd f3 86 73 3c 57 08 d7 3c 00 60 8d bc
       -0.032361843 0.014863717 0.026249094 -0.01725769
000010 13 9f 08 3d 8e 79 e1 3c 86 53 fb bb 86 da 45 bc
       0.03335483 0.027523782 -0.007669869 -0.012076026
000020 54 ed 35 bd b7 ba 84 3d 3b 59 26 bd 02 e9 76 3d
       -0.044415787 0.064809255 -0.04061244 0.060280807
000030 4b c5 b2 bb 33 7c d5 3d 31 3c 82 ba c7 06 4c 3d
       -0.005455648 0.1042408 -0.0009936151 0.04981115
000040 89 ee 18 3c 67 9e 49 bd f5 26 e2 3b e7 ba d4 3c
       0.009334215 -0.04922333 0.0069016167 0.025968028
000050 8b 90 9d 3c 90 8b 28 3c e5 a6 3f bd 88 3b 82 bd
       0.019233963 0.010287181 -0.046790022 -0.06359011
000060 ed af 84 bd 23 ac b9 3c 8a f4 f6 bc 8a 0d 05 3d
       -0.06478868 0.022665089 -0.030145902 0.032483615
000070 b9 e2 f7 bc 76 52 b6 bc 71 64 b0 ba f8 e9 66 bd
       -0.030259477 -0.022256117 -0.0013457668 -0.056375474
000080 ff 7f e0 bb b4 d5 fb bc 0a b2 eb 3a c3 ea fc 3c
       -0.006851196 -0.03074155 0.0017982137 0.030873662
000090 c9 18 94 38 e5 04 98 3d 01 65 48 3d c5 5e 15 bd
       7.0618065e-05 0.074228086 0.04892445 -0.036467332
0000a0 c5 32 b0 3a 25 cf 80 3c 50 d5 58 bc 82 c3 80 3d
       0.0013442865 0.015723774 -0.013234451 0.0628729
0000b0 44 e8 b3 3b 47 91 56 3d 30 e5 02 bd 52 d4 8f 3c
       0.0054903347 0.05238464 -0.03195685 0.017557297
0000c0 79 a4 5e bc f8 76 44 3b 48 63 20 bc 72 84 77 3d
       -0.013589018 0.0029978137 -0.0097892955 0.060429044
0000d0 20 4e 27 3c d5 07 44 bd 5e 44 9f 3d 03 38 62 3d
       0.010211498 -0.04785903 0.07776712 0.0552292
0000e0 60 c2 2e 3d 33 6b bc 3c 3e 53 04 3c cb 79 aa 3c
       0.04266584 0.023000335 0.008076487 0.020810029
0000f0 2e 40 02 3d 2b 03 b0 3c 14 18 8a 3d ef 88 70 bc
       0.031799488 0.021485886 0.06742874 -0.014681085
000100 7c 9b c3 bc fd 12 a3 bb df 3e 88 3b a3 b3 b5 3d
       -0.023877852 -0.004976629 0.0041578854 0.088721536
000110 2c 5e 5e 3c 79 ab ac bb 80 f1 22 bd c9 f4 f4 3d
       0.013572257 -0.0052694646 -0.039781094 0.119607516
000120 31 1a a3 3b 1f dd 06 3c 84 2c 45 bc 63 d7 2d bd
       0.0049774875 0.00823143 -0.012034539 -0.042441737
000130 81 0f cb bc df 79 12 3d aa fb bf bc d3 d0 2f 3d
       -0.024787666 0.035760757 -0.023435432 0.04292376
000140 e8 03 87 bc 09 eb 8d 3a c7 66 7e bc f0 98 22 3d
       -0.016481355 0.0010827492 -0.015527434 0.039696634
000150 20 99 3b 3d fb ed 4a bd 46 88 35 bc c8 40 f6 bb
       0.04580033 -0.049543362 -0.011079853 -0.0075150467
000160 7b 07 59 bb 37 70 35 3a ac c0 6e 3d 0e 88 0a bd
       -0.003311603 0.00069213234 0.058289215 -0.033821158
000170 bd 8c 2e 3d 09 8f 66 3b ae fe 0a 3c 15 82 18 3d
       0.042614687 0.003518047 0.008483572 0.03723343
000180 0a 68 44 bd 43 a2 c0 bc cc ef 27 3d 71 7f 98 3c
       -0.047950782 -0.023514872 0.041000172 0.018615456
000190 1f 93 07 bd 32 52 34 3d 23 fd 00 3c 8a 6e 8b bd
       -0.03309929 0.0440237 0.0078728525 -0.06808193
0001a0 43 a6 de bb 08 bf c3 3c 47 58 e7 bc 13 af 6c 3d
       -0.0067947223 0.023894802 -0.028240336 0.05778415
0001b0 5c f9 cc bc e5 c9 c8 bc ca 34 a3 bc 51 f4 3b 3d
       -0.025021248 -0.024510333 -0.019922633 0.045887295
0001c0 8b bc 9b 3c 23 a5 d5 bc e3 73 43 3b d7 bf 36 3d
       0.019010803 -0.02607972 0.0029823713 0.044616546
0001d0 b0 06 f1 3c b7 34 6e 3c 31 b4 ec 3d 05 53 05 3d
       0.029422134 0.014538935 0.11557806 0.032549877
0001e0 f0 52 93 3d 63 99 9e 3b 0a 21 5d 3b 10 d9 07 3d
       0.071935534 0.0048400625 0.0033741617 0.03316599
0001f0 cc 9e 53 3d 1b c4 24 3d f9 d3 85 bc c4 62 03 bd
       0.051665112 0.040226083 -0.016336428 -0.032076612

fc2.weight f4 [7, 128]
000000 33 00 2b be 81 3e 29 be 3b d1 d0 3c 6d 46 a2 bd
       -0.16699295 -0.1652775 0.025490394 -0.07923589
000010 84 1a 8f bd 32 6a b7 bd e0 f4 11 3d 09 a5 14 bd
       -0.06987479 -0.08955802 0.03563392 -0.036290202
000020 0e 4e 6c be 14 cb 02 3e e3 ca 3d bd 08 6f 76 3d
       -0.2307665 0.1277278 -0.046336066 0.06016448
000030 fa 9e 25 bd 57 78 66 3e 3a 8d 15 bb 55 fc 63 3d
       -0.040434815 0.22506844 -0.0022819773 0.055660564
000040 c1 5e 85 bd 21 63 94 bd 1e c1 f1 bd ea 4e dc 3d
       -0.065122135 -0.0724547 -0.11804412 0.10757239
000050 38 94 0f bc a1 23 ef 3d 5e 01 14 be 32 03 ac bd
       -0.008763365 0.116767175 -0.14453647 -0.08399047
000060 db f8 8e bd b5 32 d7 3d 97 95 be bd d0 cd 7d 3d
       -0.06981059 0.105077185 -0.09305876 0.061963856
000070 0d cb ab bc bd 27 96 be 3c 62 5b be 70 39 6e be
       -0.020970846 -0.29327193 -0.21424192 -0.23264098
000080 ae ac 73 bd 23 af 2e be 95 07 b6 bc b9 44 a2 3c
       -0.059490852 -0.17058997 -0.022220412 0.01980816
000090 36 5a d3 3c 7e 53 0e 3e 10 b4 83 bd 7b 0c 99 bd
       0.025799852 0.13899037 -0.064308286 -0.074730836
0000a0 90 e3 e6 bd 50 a7 86 bd 70 08 f8 bd fa a3 27 3e
       -0.11273873 -0.06574881 -0.12110984 0.16371146
0000b0 1e 4e 7a 3b cd 86 ca 3d c4 19 95 bd 21 63 81 be
       0.0038193534 0.098889925 -0.07280305 -0.25270942
0000c0 8b 23 e1 bd 65 30 d9 3d 24 19 b0 3d 4c 47 74 3d
       -0.109931074 0.10604934 0.08598545 0.059638306
0000d0 21 4e 10 be 23 f6 ee bd 3d bf 0e 3d e1 c2 5f 3d
       -0.14092304 -0.116680406 0.034850348 0.05462921
0000e0 cb f1 f0 bd fd 01 df bd 3f 2f 5c be ab 14 96 be
       -0.11764868 -0.10889051 -0.21502398 -0.29312643
0000f0 6c 32 fc bd f3 4f 30 3e 06 58 5e bd ab a6 82 3e
       -0.12314305 0.17217998 -0.054283164 0.25517783
000100 7e 08 01 3d f8 a1 e4 bd 0d e7 ed bd 56 21 39 3e
       0.03150224 -0.111637056 -0.11616335 0.18079123
000110 c9 d7 b6 3c f6 66 a5 3c 7b f5 b0 3d c9 d5 9f 3e
       0.022319691 0.020190697 0.08640572 0.31217793
000120 73 60 d0 bd dc e5 c5 bc 86 24 38 be 56 e2 92 be
       -0.10174646 -0.024157457 -0.17982683 -0.28688306
000130 79 44 18 3d 8b ab ab bd 6e 55 cb bd 64 6d 1b 3e
       0.037174676 -0.083823286 -0.09928404 0.15178448
000140 4f 5f 98 bc 6c 7a e8 3d 60 36 50 be 87 b8 36 3d
       -0.018600134 0.11351475 -0.20333242 0.044609573
000150 fd 80 d0 bc 32 a9 9f be d0 e5 9c bd a8 51 f9 bb
       -0.025452131 -0.31183773 -0.07661021 -0.007608611
000160 6b 46 47 be de 64 f6 bd 97 70 43 bd af 20 b4 bd
       -0.19460456 -0.12030958 -0.047714796 -0.087952964
000170 22 16 8b bc b0 93 91 bd 3d 24 59 be 2c 72 07 be
       -0.016978327 -0.07108247 -0.2120523 -0.13227147
000180 85 65 18 be ed 3d b1 3d 0a ef 42 be 81 fe 79 be
       -0.14882477 0.086543895 -0.19036499 -0.24413492
000190 85 6d 34 ba ff 4c cb 3d 76 54 f8 bc 0a 72 5c be
       -0.0006882775 0.09926795 -0.030313712 -0.21527877
0001a0 d0 56 4b 3c 9e 9a e6 bc d0 28 28 bc ab 0f cc 3d
       0.012410834 -0.0281499 -0.010263637 0.09963926
0001b0 f3 0b 9a be 04 01 c3 bb a1 43 b1 3d 36 56 76 3e
       -0.30087242 -0.005951049 0.08655477 0.24056324
0001c0 5f d9 c9 bc ec d0 28 bd f9 1a 0b 3d d9 d7 8c be
       -0.024639783 -0.04121487 0.03396127 -0.2750843
0001d0 26 f3 61 3d b9 3f 2c be 44 ca 0d 3e 68 c9 0d 3e
       0.055163525 -0.16821183 0.1384669 0.13846362
0001e0 99 3b d9 3d b7 28 85 3d d8 f3 b7 3d ce 98 a8 3c
       0.106070705 0.06501906 0.089820564 0.020580675
0001f0 06 2d 3e be 40 e0 46 3e f5 20 d7 bc 03 aa 68 ba
       -0.18571863 0.19421482 -0.026260832 -0.00088754314
000200 d0 b0 be 3c 09 8b 08 be a4 3a 18 bc d3 1a 8e bd
       0.02327767 -0.13334288 -0.009291325 -0.0693871
000210 88 81 66 3d b3 83 33 be e4 81 ec bc a1 50 27 3d
       0.056275874 -0.17530708 -0.02887053 0.040848378
000220 e0 ed 82 be d2 b2 e5 bd 44 47 ba bc ea 06 8a 3d
       -0.2557211 -0.11215748 -0.02273906 0.067396
000230 75 24 b8 bd 6e 25 76 3d f5 83 a4 3d 5e 88 ae 3d
       -0.089913286 0.06009429 0.08032981 0.08522104
000240 77 c3 9b bd 0e 00 c6 3b b6 f9 99 3d 52 d5 15 3e
       -0.07605641 0.006042487 0.07518332 0.14632156
000250 3e b0 70 3b 39 3c 87 be 4c dc e2 bc 10 8f 59 ba
       0.0036726142 -0.26413134 -0.027692936 -0.0008299211
000260 69 64 e1 3d b7 43 0a 3c 4c eb e3 bd e1 22 87 be
       0.1100548 0.008438996 -0.11128864 -0.26393798
000270 77 bf 67 3d c6 67 fc 3d 53 b2 1f 3e 8c d1 90 be
       0.05657908 0.12324481 0.15595369 -0.28284872
000280 ec 02 a3 bd d3 82 fd bc 0a 75 ef 3d 39 0b 13 be
       -0.07959542 -0.03094617 0.11692245 -0.1435975
000290 fd 4e be bd 04 03 48 be fb 5c 27 3e 66 2d 85 be
       -0.092924096 -0.195324 0.16344063 -0.260112
0002a0 c5 37 2e be e3 b5 88 bd df 66 0f 3e dd 5f 2f bd
       -0.17013462 -0.06675317 0.14004086 -0.04281603
0002b0 a7 9e a0 3d b7 d4 d9 bd 91 3a 09 be 17 e2 45 be
       0.078427605 -0.10636275 -0.13401248 -0.19324528
0002c0 12 d5 70 be c9 88 5a 3d 6e e1 b4 bd 0b 73 e1 bd
       -0.2351878 0.053353105 -0.0883206 -0.11008271
0002d0 9b ad 9a be 2a e7 a6 3c dc 44 75 bd bf 1b 16 be
       -0.30210575 0.0203739 -0.059880123 -0.14659022
0002e0 8c 04 21 3d 3d 76 40 3d f1 5d 7f be 49 a1 50 bd
       0.039310977 0.04698776 -0.2493818 -0.050935064
0002f0 82 c1 43 be 7f ec 08 be c0 18 69 3e 49 58 18 be
       -0.19116786 -0.13371466 0.22763348 -0.14877428
000300 38 21 31 bd e8 8e 68 bc 70 80 fb 3d e1 24 b8 bc
       -0.04324457 -0.014194228 0.12280357 -0.022478523
000310 31 5a db 3c 12 4c b6 3d 23 2e 4b 3d 7e d2 56 be
       0.026776405 0.08901228 0.049604546 -0.20978734
000320 2d 4a 1b bd f7 1a 7b 3d 5f 9b 23 3e 8f 22 df 3d
       -0.037912536 0.061305013 0.15977238 0.108952634
000330 9f 45 8e 3b 5e a3 50 3e 84 50 9b bd 87 34 f5 3c
       0.0043417956 0.2037482 -0.075837165 0.029932274
000340 1b be 5f bb 26 f1 df bd 88 65 8f be 39 e3 45 be
       -0.0034140411 -0.10934667 -0.2800715 -0.1932496
000350 ea f0 07 3a f6 e5 eb bd b2 34 97 bd ee 68 3c bd
       0.00051857403 -0.11518471 -0.07383098 -0.045998506
000360 b3 05 99 bd d2 4e 22 3e c0 71 6a bc b8 f3 91 be
       -0.0747179 0.1585038 -0.014309347 -0.28506255
000370 e7 a3 9e be 99 c5 74 3c 3f 83 5b be 9e 53 41 bd
       -0.30984423 0.014939689 -0.21436785 -0.047198884
000380 c4 22 41 3e b5 ca 01 be 22 a9 49 3e 3f 95 72 be
       0.18860918 -0.12674983 0.19693425 -0.23689745
000390 0a 9d fe bd 14 75 06 be 7b a7 ec 3c a1 e3 37 be
       -0.124322966 -0.131306 0.028888455 -0.17957927
0003a0 cb 1c 3e 3e ac c9 fb 3c 04 29 7b bd e2 ee a2 3d
       0.18565671 0.030735813 -0.061318412 0.079557195
0003b0 0e de 15 be 55 b1 e2 bc fb b3 cd bb 32 f3 65 be
       -0.14635488 -0.02767245 -0.006277559 -0.22456053
0003c0 f4 c6 5b bd 33 75 d1 bc 4e 82 1f bd 8d 0b 6b 3c
       -0.053656533 -0.02556858 -0.038942628 0.014346016
0003d0 ce 92 87 be 36 92 57 3e bf b6 8c bd 3a 9e 03 be
       -0.2647919 0.21051869 -0.068707936 -0.12853327
0003e0 71 c8 82 be 65 05 8a 3d cc 05 6b be be 06 a9 3d
       -0.2554355 0.0673931 -0.2295143 0.08253239
0003f0 36 46 a8 3d aa d3 50 be fb b2 8a bd 0c 32 e2 3c
       0.08216517 -0.20393243 -0.06772419 0.027611755

fc2.bias f4 [7]
000000 56 80 49 bc 74 cb 40 bd e3 10 a7 bc 3d 8e 65 bd
       -0.012298664 -0.047069028 -0.020393794 -0.056043852
000010 95 2b 85 bd 47 9d b2 bd ed 38 86 bd
       -0.06502453 -0.087214045 -0.065538265
